<?xml version="1.0" ?>
<net batch="1" name="graph-2016-09-10" version="6">
	<layers>
		<layer id="0" name="char_embedding/W/read/Output_0/Data__const" precision="FP32" type="Const">
			<output>
				<port id="1">
					<dim>256</dim>
					<dim>16</dim>
				</port>
			</output>
			<blobs>
				<custom offset="0" size="16384"/>
			</blobs>
		</layer>
		<layer id="1" name="char_embedding/Reshape/placeholder_port_0" precision="FP32" type="Input">
			<output>
				<port id="0">
					<dim>50</dim>
				</port>
			</output>
		</layer>
		<layer id="2" name="char_embedding/Reshape/shape/Output_0/Data__const" precision="I32" type="Const">
			<output>
				<port id="1">
					<dim>1</dim>
				</port>
			</output>
			<blobs>
				<custom offset="16384" size="4"/>
			</blobs>
		</layer>
		<layer id="3" name="char_embedding/Reshape" precision="FP32" type="Reshape">
			<input>
				<port id="0">
					<dim>50</dim>
				</port>
				<port id="1">
					<dim>1</dim>
				</port>
			</input>
			<output>
				<port id="2">
					<dim>50</dim>
				</port>
			</output>
		</layer>
		<layer id="4" name="char_embedding/EmbeddingLookupUnique/Unique" precision="FP32" type="Unique">
			<data return_counts="false" return_inverse="true" sorted="false"/>
			<input>
				<port id="0">
					<dim>50</dim>
				</port>
			</input>
			<output>
				<port id="1">
					<dim>50</dim>
				</port>
				<port id="2">
					<dim>50</dim>
				</port>
			</output>
		</layer>
		<layer id="5" name="char_embedding/EmbeddingLookupUnique/embedding_lookup" precision="FP32" type="Gather">
			<data axis="0"/>
			<input>
				<port id="0">
					<dim>256</dim>
					<dim>16</dim>
				</port>
				<port id="1">
					<dim>50</dim>
				</port>
			</input>
			<output>
				<port id="2">
					<dim>50</dim>
					<dim>16</dim>
				</port>
			</output>
		</layer>
		<layer id="6" name="char_embedding/EmbeddingLookupUnique/Gather" precision="FP32" type="Gather">
			<data axis="0"/>
			<input>
				<port id="0">
					<dim>50</dim>
					<dim>16</dim>
				</port>
				<port id="1">
					<dim>50</dim>
				</port>
			</input>
			<output>
				<port id="2">
					<dim>50</dim>
					<dim>16</dim>
				</port>
			</output>
		</layer>
		<layer id="7" name="char_embedding/cnn_0/Reshape/shape/Output_0/Data__const" precision="I32" type="Const">
			<output>
				<port id="1">
					<dim>4</dim>
				</port>
			</output>
			<blobs>
				<custom offset="16388" size="16"/>
			</blobs>
		</layer>
		<layer id="8" name="char_embedding/cnn_0/Reshape" precision="FP32" type="Reshape">
			<input>
				<port id="0">
					<dim>50</dim>
					<dim>16</dim>
				</port>
				<port id="1">
					<dim>4</dim>
				</port>
			</input>
			<output>
				<port id="2">
					<dim>1</dim>
					<dim>50</dim>
					<dim>16</dim>
					<dim>1</dim>
				</port>
			</output>
		</layer>
		<layer id="9" name="char_embedding/cnn_0/Reshape/Transpose" precision="FP32" type="Permute">
			<data order="0,3,1,2"/>
			<input>
				<port id="0">
					<dim>1</dim>
					<dim>50</dim>
					<dim>16</dim>
					<dim>1</dim>
				</port>
			</input>
			<output>
				<port id="1">
					<dim>1</dim>
					<dim>1</dim>
					<dim>50</dim>
					<dim>16</dim>
				</port>
			</output>
		</layer>
		<layer id="10" name="char_embedding/cnn_0/Conv2D" precision="FP32" type="Convolution">
			<data auto_pad="valid" dilations="1,1" group="1" kernel="1,16" output="32" pads_begin="0,0" pads_end="0,0" strides="1,1"/>
			<input>
				<port id="0">
					<dim>1</dim>
					<dim>1</dim>
					<dim>50</dim>
					<dim>16</dim>
				</port>
			</input>
			<output>
				<port id="3">
					<dim>1</dim>
					<dim>32</dim>
					<dim>50</dim>
					<dim>1</dim>
				</port>
			</output>
			<blobs>
				<weights offset="16404" size="2048"/>
				<biases offset="18452" size="128"/>
			</blobs>
		</layer>
		<layer id="11" name="char_embedding/cnn_0/Relu" precision="FP32" type="ReLU">
			<input>
				<port id="0">
					<dim>1</dim>
					<dim>32</dim>
					<dim>50</dim>
					<dim>1</dim>
				</port>
			</input>
			<output>
				<port id="1">
					<dim>1</dim>
					<dim>32</dim>
					<dim>50</dim>
					<dim>1</dim>
				</port>
			</output>
		</layer>
		<layer id="12" name="4294_const" precision="I32" type="Const">
			<output>
				<port id="1">
					<dim>4</dim>
				</port>
			</output>
			<blobs>
				<custom offset="18580" size="16"/>
			</blobs>
		</layer>
		<layer id="13" name="char_embedding/cnn_0/Max/Reshape" precision="FP32" type="Reshape">
			<input>
				<port id="0">
					<dim>1</dim>
					<dim>32</dim>
					<dim>50</dim>
					<dim>1</dim>
				</port>
				<port id="1">
					<dim>4</dim>
				</port>
			</input>
			<output>
				<port id="2">
					<dim>1</dim>
					<dim>32</dim>
					<dim>50</dim>
					<dim>1</dim>
				</port>
			</output>
		</layer>
		<layer id="14" name="char_embedding/cnn_0/Max/Pool" precision="FP32" type="Pooling">
			<data exclude-pad="false" kernel="50,1" pads_begin="0,0" pads_end="0,0" pool-method="max" strides="1,1"/>
			<input>
				<port id="0">
					<dim>1</dim>
					<dim>32</dim>
					<dim>50</dim>
					<dim>1</dim>
				</port>
			</input>
			<output>
				<port id="1">
					<dim>1</dim>
					<dim>32</dim>
					<dim>1</dim>
					<dim>1</dim>
				</port>
			</output>
		</layer>
		<layer id="15" name="4296_const" precision="I32" type="Const">
			<output>
				<port id="1">
					<dim>4</dim>
				</port>
			</output>
			<blobs>
				<custom offset="18596" size="16"/>
			</blobs>
		</layer>
		<layer id="16" name="char_embedding/cnn_0/Max/FinalReshape" precision="FP32" type="Reshape">
			<input>
				<port id="0">
					<dim>1</dim>
					<dim>32</dim>
					<dim>1</dim>
					<dim>1</dim>
				</port>
				<port id="1">
					<dim>4</dim>
				</port>
			</input>
			<output>
				<port id="2">
					<dim>1</dim>
					<dim>32</dim>
					<dim>1</dim>
					<dim>1</dim>
				</port>
			</output>
		</layer>
		<layer id="17" name="char_embedding/cnn_0/Max/Transpose" precision="FP32" type="Permute">
			<data order="0,2,3,1"/>
			<input>
				<port id="0">
					<dim>1</dim>
					<dim>32</dim>
					<dim>1</dim>
					<dim>1</dim>
				</port>
			</input>
			<output>
				<port id="1">
					<dim>1</dim>
					<dim>1</dim>
					<dim>1</dim>
					<dim>32</dim>
				</port>
			</output>
		</layer>
		<layer id="18" name="char_embedding/cnn_0/Reshape_1/shape/Output_0/Data__const" precision="I32" type="Const">
			<output>
				<port id="1">
					<dim>2</dim>
				</port>
			</output>
			<blobs>
				<custom offset="18612" size="8"/>
			</blobs>
		</layer>
		<layer id="19" name="char_embedding/cnn_0/Reshape_1" precision="FP32" type="Reshape">
			<input>
				<port id="0">
					<dim>1</dim>
					<dim>1</dim>
					<dim>1</dim>
					<dim>32</dim>
				</port>
				<port id="1">
					<dim>2</dim>
				</port>
			</input>
			<output>
				<port id="2">
					<dim>1</dim>
					<dim>32</dim>
				</port>
			</output>
		</layer>
		<layer id="20" name="char_embedding/cnn_1/Reshape/shape/Output_0/Data__const" precision="I32" type="Const">
			<output>
				<port id="1">
					<dim>4</dim>
				</port>
			</output>
			<blobs>
				<custom offset="16388" size="16"/>
			</blobs>
		</layer>
		<layer id="21" name="char_embedding/cnn_1/Reshape" precision="FP32" type="Reshape">
			<input>
				<port id="0">
					<dim>50</dim>
					<dim>16</dim>
				</port>
				<port id="1">
					<dim>4</dim>
				</port>
			</input>
			<output>
				<port id="2">
					<dim>1</dim>
					<dim>50</dim>
					<dim>16</dim>
					<dim>1</dim>
				</port>
			</output>
		</layer>
		<layer id="22" name="char_embedding/cnn_1/Reshape/Transpose" precision="FP32" type="Permute">
			<data order="0,3,1,2"/>
			<input>
				<port id="0">
					<dim>1</dim>
					<dim>50</dim>
					<dim>16</dim>
					<dim>1</dim>
				</port>
			</input>
			<output>
				<port id="1">
					<dim>1</dim>
					<dim>1</dim>
					<dim>50</dim>
					<dim>16</dim>
				</port>
			</output>
		</layer>
		<layer id="23" name="char_embedding/cnn_1/Conv2D" precision="FP32" type="Convolution">
			<data auto_pad="valid" dilations="1,1" group="1" kernel="2,16" output="32" pads_begin="0,0" pads_end="0,0" strides="1,1"/>
			<input>
				<port id="0">
					<dim>1</dim>
					<dim>1</dim>
					<dim>50</dim>
					<dim>16</dim>
				</port>
			</input>
			<output>
				<port id="3">
					<dim>1</dim>
					<dim>32</dim>
					<dim>49</dim>
					<dim>1</dim>
				</port>
			</output>
			<blobs>
				<weights offset="18620" size="4096"/>
				<biases offset="22716" size="128"/>
			</blobs>
		</layer>
		<layer id="24" name="char_embedding/cnn_1/Relu" precision="FP32" type="ReLU">
			<input>
				<port id="0">
					<dim>1</dim>
					<dim>32</dim>
					<dim>49</dim>
					<dim>1</dim>
				</port>
			</input>
			<output>
				<port id="1">
					<dim>1</dim>
					<dim>32</dim>
					<dim>49</dim>
					<dim>1</dim>
				</port>
			</output>
		</layer>
		<layer id="25" name="4267_const" precision="I32" type="Const">
			<output>
				<port id="1">
					<dim>4</dim>
				</port>
			</output>
			<blobs>
				<custom offset="22844" size="16"/>
			</blobs>
		</layer>
		<layer id="26" name="char_embedding/cnn_1/Max/Reshape" precision="FP32" type="Reshape">
			<input>
				<port id="0">
					<dim>1</dim>
					<dim>32</dim>
					<dim>49</dim>
					<dim>1</dim>
				</port>
				<port id="1">
					<dim>4</dim>
				</port>
			</input>
			<output>
				<port id="2">
					<dim>1</dim>
					<dim>32</dim>
					<dim>49</dim>
					<dim>1</dim>
				</port>
			</output>
		</layer>
		<layer id="27" name="char_embedding/cnn_1/Max/Pool" precision="FP32" type="Pooling">
			<data exclude-pad="false" kernel="49,1" pads_begin="0,0" pads_end="0,0" pool-method="max" strides="1,1"/>
			<input>
				<port id="0">
					<dim>1</dim>
					<dim>32</dim>
					<dim>49</dim>
					<dim>1</dim>
				</port>
			</input>
			<output>
				<port id="1">
					<dim>1</dim>
					<dim>32</dim>
					<dim>1</dim>
					<dim>1</dim>
				</port>
			</output>
		</layer>
		<layer id="28" name="4269_const" precision="I32" type="Const">
			<output>
				<port id="1">
					<dim>4</dim>
				</port>
			</output>
			<blobs>
				<custom offset="18596" size="16"/>
			</blobs>
		</layer>
		<layer id="29" name="char_embedding/cnn_1/Max/FinalReshape" precision="FP32" type="Reshape">
			<input>
				<port id="0">
					<dim>1</dim>
					<dim>32</dim>
					<dim>1</dim>
					<dim>1</dim>
				</port>
				<port id="1">
					<dim>4</dim>
				</port>
			</input>
			<output>
				<port id="2">
					<dim>1</dim>
					<dim>32</dim>
					<dim>1</dim>
					<dim>1</dim>
				</port>
			</output>
		</layer>
		<layer id="30" name="char_embedding/cnn_1/Max/Transpose" precision="FP32" type="Permute">
			<data order="0,2,3,1"/>
			<input>
				<port id="0">
					<dim>1</dim>
					<dim>32</dim>
					<dim>1</dim>
					<dim>1</dim>
				</port>
			</input>
			<output>
				<port id="1">
					<dim>1</dim>
					<dim>1</dim>
					<dim>1</dim>
					<dim>32</dim>
				</port>
			</output>
		</layer>
		<layer id="31" name="char_embedding/cnn_1/Reshape_1/shape/Output_0/Data__const" precision="I32" type="Const">
			<output>
				<port id="1">
					<dim>2</dim>
				</port>
			</output>
			<blobs>
				<custom offset="18612" size="8"/>
			</blobs>
		</layer>
		<layer id="32" name="char_embedding/cnn_1/Reshape_1" precision="FP32" type="Reshape">
			<input>
				<port id="0">
					<dim>1</dim>
					<dim>1</dim>
					<dim>1</dim>
					<dim>32</dim>
				</port>
				<port id="1">
					<dim>2</dim>
				</port>
			</input>
			<output>
				<port id="2">
					<dim>1</dim>
					<dim>32</dim>
				</port>
			</output>
		</layer>
		<layer id="33" name="char_embedding/cnn_2/Reshape/shape/Output_0/Data__const" precision="I32" type="Const">
			<output>
				<port id="1">
					<dim>4</dim>
				</port>
			</output>
			<blobs>
				<custom offset="16388" size="16"/>
			</blobs>
		</layer>
		<layer id="34" name="char_embedding/cnn_2/Reshape" precision="FP32" type="Reshape">
			<input>
				<port id="0">
					<dim>50</dim>
					<dim>16</dim>
				</port>
				<port id="1">
					<dim>4</dim>
				</port>
			</input>
			<output>
				<port id="2">
					<dim>1</dim>
					<dim>50</dim>
					<dim>16</dim>
					<dim>1</dim>
				</port>
			</output>
		</layer>
		<layer id="35" name="char_embedding/cnn_2/Reshape/Transpose" precision="FP32" type="Permute">
			<data order="0,3,1,2"/>
			<input>
				<port id="0">
					<dim>1</dim>
					<dim>50</dim>
					<dim>16</dim>
					<dim>1</dim>
				</port>
			</input>
			<output>
				<port id="1">
					<dim>1</dim>
					<dim>1</dim>
					<dim>50</dim>
					<dim>16</dim>
				</port>
			</output>
		</layer>
		<layer id="36" name="char_embedding/cnn_2/Conv2D" precision="FP32" type="Convolution">
			<data auto_pad="valid" dilations="1,1" group="1" kernel="3,16" output="64" pads_begin="0,0" pads_end="0,0" strides="1,1"/>
			<input>
				<port id="0">
					<dim>1</dim>
					<dim>1</dim>
					<dim>50</dim>
					<dim>16</dim>
				</port>
			</input>
			<output>
				<port id="3">
					<dim>1</dim>
					<dim>64</dim>
					<dim>48</dim>
					<dim>1</dim>
				</port>
			</output>
			<blobs>
				<weights offset="22860" size="12288"/>
				<biases offset="35148" size="256"/>
			</blobs>
		</layer>
		<layer id="37" name="char_embedding/cnn_2/Relu" precision="FP32" type="ReLU">
			<input>
				<port id="0">
					<dim>1</dim>
					<dim>64</dim>
					<dim>48</dim>
					<dim>1</dim>
				</port>
			</input>
			<output>
				<port id="1">
					<dim>1</dim>
					<dim>64</dim>
					<dim>48</dim>
					<dim>1</dim>
				</port>
			</output>
		</layer>
		<layer id="38" name="4303_const" precision="I32" type="Const">
			<output>
				<port id="1">
					<dim>4</dim>
				</port>
			</output>
			<blobs>
				<custom offset="35404" size="16"/>
			</blobs>
		</layer>
		<layer id="39" name="char_embedding/cnn_2/Max/Reshape" precision="FP32" type="Reshape">
			<input>
				<port id="0">
					<dim>1</dim>
					<dim>64</dim>
					<dim>48</dim>
					<dim>1</dim>
				</port>
				<port id="1">
					<dim>4</dim>
				</port>
			</input>
			<output>
				<port id="2">
					<dim>1</dim>
					<dim>64</dim>
					<dim>48</dim>
					<dim>1</dim>
				</port>
			</output>
		</layer>
		<layer id="40" name="char_embedding/cnn_2/Max/Pool" precision="FP32" type="Pooling">
			<data exclude-pad="false" kernel="48,1" pads_begin="0,0" pads_end="0,0" pool-method="max" strides="1,1"/>
			<input>
				<port id="0">
					<dim>1</dim>
					<dim>64</dim>
					<dim>48</dim>
					<dim>1</dim>
				</port>
			</input>
			<output>
				<port id="1">
					<dim>1</dim>
					<dim>64</dim>
					<dim>1</dim>
					<dim>1</dim>
				</port>
			</output>
		</layer>
		<layer id="41" name="4305_const" precision="I32" type="Const">
			<output>
				<port id="1">
					<dim>4</dim>
				</port>
			</output>
			<blobs>
				<custom offset="35420" size="16"/>
			</blobs>
		</layer>
		<layer id="42" name="char_embedding/cnn_2/Max/FinalReshape" precision="FP32" type="Reshape">
			<input>
				<port id="0">
					<dim>1</dim>
					<dim>64</dim>
					<dim>1</dim>
					<dim>1</dim>
				</port>
				<port id="1">
					<dim>4</dim>
				</port>
			</input>
			<output>
				<port id="2">
					<dim>1</dim>
					<dim>64</dim>
					<dim>1</dim>
					<dim>1</dim>
				</port>
			</output>
		</layer>
		<layer id="43" name="char_embedding/cnn_2/Max/Transpose" precision="FP32" type="Permute">
			<data order="0,2,3,1"/>
			<input>
				<port id="0">
					<dim>1</dim>
					<dim>64</dim>
					<dim>1</dim>
					<dim>1</dim>
				</port>
			</input>
			<output>
				<port id="1">
					<dim>1</dim>
					<dim>1</dim>
					<dim>1</dim>
					<dim>64</dim>
				</port>
			</output>
		</layer>
		<layer id="44" name="char_embedding/cnn_2/Reshape_1/shape/Output_0/Data__const" precision="I32" type="Const">
			<output>
				<port id="1">
					<dim>2</dim>
				</port>
			</output>
			<blobs>
				<custom offset="35436" size="8"/>
			</blobs>
		</layer>
		<layer id="45" name="char_embedding/cnn_2/Reshape_1" precision="FP32" type="Reshape">
			<input>
				<port id="0">
					<dim>1</dim>
					<dim>1</dim>
					<dim>1</dim>
					<dim>64</dim>
				</port>
				<port id="1">
					<dim>2</dim>
				</port>
			</input>
			<output>
				<port id="2">
					<dim>1</dim>
					<dim>64</dim>
				</port>
			</output>
		</layer>
		<layer id="46" name="char_embedding/cnn_3/Reshape/shape/Output_0/Data__const" precision="I32" type="Const">
			<output>
				<port id="1">
					<dim>4</dim>
				</port>
			</output>
			<blobs>
				<custom offset="16388" size="16"/>
			</blobs>
		</layer>
		<layer id="47" name="char_embedding/cnn_3/Reshape" precision="FP32" type="Reshape">
			<input>
				<port id="0">
					<dim>50</dim>
					<dim>16</dim>
				</port>
				<port id="1">
					<dim>4</dim>
				</port>
			</input>
			<output>
				<port id="2">
					<dim>1</dim>
					<dim>50</dim>
					<dim>16</dim>
					<dim>1</dim>
				</port>
			</output>
		</layer>
		<layer id="48" name="char_embedding/cnn_3/Reshape/Transpose" precision="FP32" type="Permute">
			<data order="0,3,1,2"/>
			<input>
				<port id="0">
					<dim>1</dim>
					<dim>50</dim>
					<dim>16</dim>
					<dim>1</dim>
				</port>
			</input>
			<output>
				<port id="1">
					<dim>1</dim>
					<dim>1</dim>
					<dim>50</dim>
					<dim>16</dim>
				</port>
			</output>
		</layer>
		<layer id="49" name="char_embedding/cnn_3/Conv2D" precision="FP32" type="Convolution">
			<data auto_pad="valid" dilations="1,1" group="1" kernel="4,16" output="128" pads_begin="0,0" pads_end="0,0" strides="1,1"/>
			<input>
				<port id="0">
					<dim>1</dim>
					<dim>1</dim>
					<dim>50</dim>
					<dim>16</dim>
				</port>
			</input>
			<output>
				<port id="3">
					<dim>1</dim>
					<dim>128</dim>
					<dim>47</dim>
					<dim>1</dim>
				</port>
			</output>
			<blobs>
				<weights offset="35444" size="32768"/>
				<biases offset="68212" size="512"/>
			</blobs>
		</layer>
		<layer id="50" name="char_embedding/cnn_3/Relu" precision="FP32" type="ReLU">
			<input>
				<port id="0">
					<dim>1</dim>
					<dim>128</dim>
					<dim>47</dim>
					<dim>1</dim>
				</port>
			</input>
			<output>
				<port id="1">
					<dim>1</dim>
					<dim>128</dim>
					<dim>47</dim>
					<dim>1</dim>
				</port>
			</output>
		</layer>
		<layer id="51" name="4285_const" precision="I32" type="Const">
			<output>
				<port id="1">
					<dim>4</dim>
				</port>
			</output>
			<blobs>
				<custom offset="68724" size="16"/>
			</blobs>
		</layer>
		<layer id="52" name="char_embedding/cnn_3/Max/Reshape" precision="FP32" type="Reshape">
			<input>
				<port id="0">
					<dim>1</dim>
					<dim>128</dim>
					<dim>47</dim>
					<dim>1</dim>
				</port>
				<port id="1">
					<dim>4</dim>
				</port>
			</input>
			<output>
				<port id="2">
					<dim>1</dim>
					<dim>128</dim>
					<dim>47</dim>
					<dim>1</dim>
				</port>
			</output>
		</layer>
		<layer id="53" name="char_embedding/cnn_3/Max/Pool" precision="FP32" type="Pooling">
			<data exclude-pad="false" kernel="47,1" pads_begin="0,0" pads_end="0,0" pool-method="max" strides="1,1"/>
			<input>
				<port id="0">
					<dim>1</dim>
					<dim>128</dim>
					<dim>47</dim>
					<dim>1</dim>
				</port>
			</input>
			<output>
				<port id="1">
					<dim>1</dim>
					<dim>128</dim>
					<dim>1</dim>
					<dim>1</dim>
				</port>
			</output>
		</layer>
		<layer id="54" name="4287_const" precision="I32" type="Const">
			<output>
				<port id="1">
					<dim>4</dim>
				</port>
			</output>
			<blobs>
				<custom offset="68740" size="16"/>
			</blobs>
		</layer>
		<layer id="55" name="char_embedding/cnn_3/Max/FinalReshape" precision="FP32" type="Reshape">
			<input>
				<port id="0">
					<dim>1</dim>
					<dim>128</dim>
					<dim>1</dim>
					<dim>1</dim>
				</port>
				<port id="1">
					<dim>4</dim>
				</port>
			</input>
			<output>
				<port id="2">
					<dim>1</dim>
					<dim>128</dim>
					<dim>1</dim>
					<dim>1</dim>
				</port>
			</output>
		</layer>
		<layer id="56" name="char_embedding/cnn_3/Max/Transpose" precision="FP32" type="Permute">
			<data order="0,2,3,1"/>
			<input>
				<port id="0">
					<dim>1</dim>
					<dim>128</dim>
					<dim>1</dim>
					<dim>1</dim>
				</port>
			</input>
			<output>
				<port id="1">
					<dim>1</dim>
					<dim>1</dim>
					<dim>1</dim>
					<dim>128</dim>
				</port>
			</output>
		</layer>
		<layer id="57" name="char_embedding/cnn_3/Reshape_1/shape/Output_0/Data__const" precision="I32" type="Const">
			<output>
				<port id="1">
					<dim>2</dim>
				</port>
			</output>
			<blobs>
				<custom offset="68756" size="8"/>
			</blobs>
		</layer>
		<layer id="58" name="char_embedding/cnn_3/Reshape_1" precision="FP32" type="Reshape">
			<input>
				<port id="0">
					<dim>1</dim>
					<dim>1</dim>
					<dim>1</dim>
					<dim>128</dim>
				</port>
				<port id="1">
					<dim>2</dim>
				</port>
			</input>
			<output>
				<port id="2">
					<dim>1</dim>
					<dim>128</dim>
				</port>
			</output>
		</layer>
		<layer id="59" name="char_embedding/cnn_4/Reshape/shape/Output_0/Data__const" precision="I32" type="Const">
			<output>
				<port id="1">
					<dim>4</dim>
				</port>
			</output>
			<blobs>
				<custom offset="16388" size="16"/>
			</blobs>
		</layer>
		<layer id="60" name="char_embedding/cnn_4/Reshape" precision="FP32" type="Reshape">
			<input>
				<port id="0">
					<dim>50</dim>
					<dim>16</dim>
				</port>
				<port id="1">
					<dim>4</dim>
				</port>
			</input>
			<output>
				<port id="2">
					<dim>1</dim>
					<dim>50</dim>
					<dim>16</dim>
					<dim>1</dim>
				</port>
			</output>
		</layer>
		<layer id="61" name="char_embedding/cnn_4/Reshape/Transpose" precision="FP32" type="Permute">
			<data order="0,3,1,2"/>
			<input>
				<port id="0">
					<dim>1</dim>
					<dim>50</dim>
					<dim>16</dim>
					<dim>1</dim>
				</port>
			</input>
			<output>
				<port id="1">
					<dim>1</dim>
					<dim>1</dim>
					<dim>50</dim>
					<dim>16</dim>
				</port>
			</output>
		</layer>
		<layer id="62" name="char_embedding/cnn_4/Conv2D" precision="FP32" type="Convolution">
			<data auto_pad="valid" dilations="1,1" group="1" kernel="5,16" output="256" pads_begin="0,0" pads_end="0,0" strides="1,1"/>
			<input>
				<port id="0">
					<dim>1</dim>
					<dim>1</dim>
					<dim>50</dim>
					<dim>16</dim>
				</port>
			</input>
			<output>
				<port id="3">
					<dim>1</dim>
					<dim>256</dim>
					<dim>46</dim>
					<dim>1</dim>
				</port>
			</output>
			<blobs>
				<weights offset="68764" size="81920"/>
				<biases offset="150684" size="1024"/>
			</blobs>
		</layer>
		<layer id="63" name="char_embedding/cnn_4/Relu" precision="FP32" type="ReLU">
			<input>
				<port id="0">
					<dim>1</dim>
					<dim>256</dim>
					<dim>46</dim>
					<dim>1</dim>
				</port>
			</input>
			<output>
				<port id="1">
					<dim>1</dim>
					<dim>256</dim>
					<dim>46</dim>
					<dim>1</dim>
				</port>
			</output>
		</layer>
		<layer id="64" name="4330_const" precision="I32" type="Const">
			<output>
				<port id="1">
					<dim>4</dim>
				</port>
			</output>
			<blobs>
				<custom offset="151708" size="16"/>
			</blobs>
		</layer>
		<layer id="65" name="char_embedding/cnn_4/Max/Reshape" precision="FP32" type="Reshape">
			<input>
				<port id="0">
					<dim>1</dim>
					<dim>256</dim>
					<dim>46</dim>
					<dim>1</dim>
				</port>
				<port id="1">
					<dim>4</dim>
				</port>
			</input>
			<output>
				<port id="2">
					<dim>1</dim>
					<dim>256</dim>
					<dim>46</dim>
					<dim>1</dim>
				</port>
			</output>
		</layer>
		<layer id="66" name="char_embedding/cnn_4/Max/Pool" precision="FP32" type="Pooling">
			<data exclude-pad="false" kernel="46,1" pads_begin="0,0" pads_end="0,0" pool-method="max" strides="1,1"/>
			<input>
				<port id="0">
					<dim>1</dim>
					<dim>256</dim>
					<dim>46</dim>
					<dim>1</dim>
				</port>
			</input>
			<output>
				<port id="1">
					<dim>1</dim>
					<dim>256</dim>
					<dim>1</dim>
					<dim>1</dim>
				</port>
			</output>
		</layer>
		<layer id="67" name="4332_const" precision="I32" type="Const">
			<output>
				<port id="1">
					<dim>4</dim>
				</port>
			</output>
			<blobs>
				<custom offset="151724" size="16"/>
			</blobs>
		</layer>
		<layer id="68" name="char_embedding/cnn_4/Max/FinalReshape" precision="FP32" type="Reshape">
			<input>
				<port id="0">
					<dim>1</dim>
					<dim>256</dim>
					<dim>1</dim>
					<dim>1</dim>
				</port>
				<port id="1">
					<dim>4</dim>
				</port>
			</input>
			<output>
				<port id="2">
					<dim>1</dim>
					<dim>256</dim>
					<dim>1</dim>
					<dim>1</dim>
				</port>
			</output>
		</layer>
		<layer id="69" name="char_embedding/cnn_4/Max/Transpose" precision="FP32" type="Permute">
			<data order="0,2,3,1"/>
			<input>
				<port id="0">
					<dim>1</dim>
					<dim>256</dim>
					<dim>1</dim>
					<dim>1</dim>
				</port>
			</input>
			<output>
				<port id="1">
					<dim>1</dim>
					<dim>1</dim>
					<dim>1</dim>
					<dim>256</dim>
				</port>
			</output>
		</layer>
		<layer id="70" name="char_embedding/cnn_4/Reshape_1/shape/Output_0/Data__const" precision="I32" type="Const">
			<output>
				<port id="1">
					<dim>2</dim>
				</port>
			</output>
			<blobs>
				<custom offset="151740" size="8"/>
			</blobs>
		</layer>
		<layer id="71" name="char_embedding/cnn_4/Reshape_1" precision="FP32" type="Reshape">
			<input>
				<port id="0">
					<dim>1</dim>
					<dim>1</dim>
					<dim>1</dim>
					<dim>256</dim>
				</port>
				<port id="1">
					<dim>2</dim>
				</port>
			</input>
			<output>
				<port id="2">
					<dim>1</dim>
					<dim>256</dim>
				</port>
			</output>
		</layer>
		<layer id="72" name="char_embedding/cnn_5/Reshape/shape/Output_0/Data__const" precision="I32" type="Const">
			<output>
				<port id="1">
					<dim>4</dim>
				</port>
			</output>
			<blobs>
				<custom offset="16388" size="16"/>
			</blobs>
		</layer>
		<layer id="73" name="char_embedding/cnn_5/Reshape" precision="FP32" type="Reshape">
			<input>
				<port id="0">
					<dim>50</dim>
					<dim>16</dim>
				</port>
				<port id="1">
					<dim>4</dim>
				</port>
			</input>
			<output>
				<port id="2">
					<dim>1</dim>
					<dim>50</dim>
					<dim>16</dim>
					<dim>1</dim>
				</port>
			</output>
		</layer>
		<layer id="74" name="char_embedding/cnn_5/Reshape/Transpose" precision="FP32" type="Permute">
			<data order="0,3,1,2"/>
			<input>
				<port id="0">
					<dim>1</dim>
					<dim>50</dim>
					<dim>16</dim>
					<dim>1</dim>
				</port>
			</input>
			<output>
				<port id="1">
					<dim>1</dim>
					<dim>1</dim>
					<dim>50</dim>
					<dim>16</dim>
				</port>
			</output>
		</layer>
		<layer id="75" name="char_embedding/cnn_5/Conv2D" precision="FP32" type="Convolution">
			<data auto_pad="valid" dilations="1,1" group="1" kernel="6,16" output="512" pads_begin="0,0" pads_end="0,0" strides="1,1"/>
			<input>
				<port id="0">
					<dim>1</dim>
					<dim>1</dim>
					<dim>50</dim>
					<dim>16</dim>
				</port>
			</input>
			<output>
				<port id="3">
					<dim>1</dim>
					<dim>512</dim>
					<dim>45</dim>
					<dim>1</dim>
				</port>
			</output>
			<blobs>
				<weights offset="151748" size="196608"/>
				<biases offset="348356" size="2048"/>
			</blobs>
		</layer>
		<layer id="76" name="char_embedding/cnn_5/Relu" precision="FP32" type="ReLU">
			<input>
				<port id="0">
					<dim>1</dim>
					<dim>512</dim>
					<dim>45</dim>
					<dim>1</dim>
				</port>
			</input>
			<output>
				<port id="1">
					<dim>1</dim>
					<dim>512</dim>
					<dim>45</dim>
					<dim>1</dim>
				</port>
			</output>
		</layer>
		<layer id="77" name="4321_const" precision="I32" type="Const">
			<output>
				<port id="1">
					<dim>4</dim>
				</port>
			</output>
			<blobs>
				<custom offset="350404" size="16"/>
			</blobs>
		</layer>
		<layer id="78" name="char_embedding/cnn_5/Max/Reshape" precision="FP32" type="Reshape">
			<input>
				<port id="0">
					<dim>1</dim>
					<dim>512</dim>
					<dim>45</dim>
					<dim>1</dim>
				</port>
				<port id="1">
					<dim>4</dim>
				</port>
			</input>
			<output>
				<port id="2">
					<dim>1</dim>
					<dim>512</dim>
					<dim>45</dim>
					<dim>1</dim>
				</port>
			</output>
		</layer>
		<layer id="79" name="char_embedding/cnn_5/Max/Pool" precision="FP32" type="Pooling">
			<data exclude-pad="false" kernel="45,1" pads_begin="0,0" pads_end="0,0" pool-method="max" strides="1,1"/>
			<input>
				<port id="0">
					<dim>1</dim>
					<dim>512</dim>
					<dim>45</dim>
					<dim>1</dim>
				</port>
			</input>
			<output>
				<port id="1">
					<dim>1</dim>
					<dim>512</dim>
					<dim>1</dim>
					<dim>1</dim>
				</port>
			</output>
		</layer>
		<layer id="80" name="4323_const" precision="I32" type="Const">
			<output>
				<port id="1">
					<dim>4</dim>
				</port>
			</output>
			<blobs>
				<custom offset="350420" size="16"/>
			</blobs>
		</layer>
		<layer id="81" name="char_embedding/cnn_5/Max/FinalReshape" precision="FP32" type="Reshape">
			<input>
				<port id="0">
					<dim>1</dim>
					<dim>512</dim>
					<dim>1</dim>
					<dim>1</dim>
				</port>
				<port id="1">
					<dim>4</dim>
				</port>
			</input>
			<output>
				<port id="2">
					<dim>1</dim>
					<dim>512</dim>
					<dim>1</dim>
					<dim>1</dim>
				</port>
			</output>
		</layer>
		<layer id="82" name="char_embedding/cnn_5/Max/Transpose" precision="FP32" type="Permute">
			<data order="0,2,3,1"/>
			<input>
				<port id="0">
					<dim>1</dim>
					<dim>512</dim>
					<dim>1</dim>
					<dim>1</dim>
				</port>
			</input>
			<output>
				<port id="1">
					<dim>1</dim>
					<dim>1</dim>
					<dim>1</dim>
					<dim>512</dim>
				</port>
			</output>
		</layer>
		<layer id="83" name="char_embedding/cnn_5/Reshape_1/shape/Output_0/Data__const" precision="I32" type="Const">
			<output>
				<port id="1">
					<dim>2</dim>
				</port>
			</output>
			<blobs>
				<custom offset="350436" size="8"/>
			</blobs>
		</layer>
		<layer id="84" name="char_embedding/cnn_5/Reshape_1" precision="FP32" type="Reshape">
			<input>
				<port id="0">
					<dim>1</dim>
					<dim>1</dim>
					<dim>1</dim>
					<dim>512</dim>
				</port>
				<port id="1">
					<dim>2</dim>
				</port>
			</input>
			<output>
				<port id="2">
					<dim>1</dim>
					<dim>512</dim>
				</port>
			</output>
		</layer>
		<layer id="85" name="char_embedding/cnn_6/Reshape/shape/Output_0/Data__const" precision="I32" type="Const">
			<output>
				<port id="1">
					<dim>4</dim>
				</port>
			</output>
			<blobs>
				<custom offset="16388" size="16"/>
			</blobs>
		</layer>
		<layer id="86" name="char_embedding/cnn_6/Reshape" precision="FP32" type="Reshape">
			<input>
				<port id="0">
					<dim>50</dim>
					<dim>16</dim>
				</port>
				<port id="1">
					<dim>4</dim>
				</port>
			</input>
			<output>
				<port id="2">
					<dim>1</dim>
					<dim>50</dim>
					<dim>16</dim>
					<dim>1</dim>
				</port>
			</output>
		</layer>
		<layer id="87" name="char_embedding/cnn_6/Reshape/Transpose" precision="FP32" type="Permute">
			<data order="0,3,1,2"/>
			<input>
				<port id="0">
					<dim>1</dim>
					<dim>50</dim>
					<dim>16</dim>
					<dim>1</dim>
				</port>
			</input>
			<output>
				<port id="1">
					<dim>1</dim>
					<dim>1</dim>
					<dim>50</dim>
					<dim>16</dim>
				</port>
			</output>
		</layer>
		<layer id="88" name="char_embedding/cnn_6/Conv2D" precision="FP32" type="Convolution">
			<data auto_pad="valid" dilations="1,1" group="1" kernel="7,16" output="1024" pads_begin="0,0" pads_end="0,0" strides="1,1"/>
			<input>
				<port id="0">
					<dim>1</dim>
					<dim>1</dim>
					<dim>50</dim>
					<dim>16</dim>
				</port>
			</input>
			<output>
				<port id="3">
					<dim>1</dim>
					<dim>1024</dim>
					<dim>44</dim>
					<dim>1</dim>
				</port>
			</output>
			<blobs>
				<weights offset="350444" size="458752"/>
				<biases offset="809196" size="4096"/>
			</blobs>
		</layer>
		<layer id="89" name="char_embedding/cnn_6/Relu" precision="FP32" type="ReLU">
			<input>
				<port id="0">
					<dim>1</dim>
					<dim>1024</dim>
					<dim>44</dim>
					<dim>1</dim>
				</port>
			</input>
			<output>
				<port id="1">
					<dim>1</dim>
					<dim>1024</dim>
					<dim>44</dim>
					<dim>1</dim>
				</port>
			</output>
		</layer>
		<layer id="90" name="4276_const" precision="I32" type="Const">
			<output>
				<port id="1">
					<dim>4</dim>
				</port>
			</output>
			<blobs>
				<custom offset="813292" size="16"/>
			</blobs>
		</layer>
		<layer id="91" name="char_embedding/cnn_6/Max/Reshape" precision="FP32" type="Reshape">
			<input>
				<port id="0">
					<dim>1</dim>
					<dim>1024</dim>
					<dim>44</dim>
					<dim>1</dim>
				</port>
				<port id="1">
					<dim>4</dim>
				</port>
			</input>
			<output>
				<port id="2">
					<dim>1</dim>
					<dim>1024</dim>
					<dim>44</dim>
					<dim>1</dim>
				</port>
			</output>
		</layer>
		<layer id="92" name="char_embedding/cnn_6/Max/Pool" precision="FP32" type="Pooling">
			<data exclude-pad="false" kernel="44,1" pads_begin="0,0" pads_end="0,0" pool-method="max" strides="1,1"/>
			<input>
				<port id="0">
					<dim>1</dim>
					<dim>1024</dim>
					<dim>44</dim>
					<dim>1</dim>
				</port>
			</input>
			<output>
				<port id="1">
					<dim>1</dim>
					<dim>1024</dim>
					<dim>1</dim>
					<dim>1</dim>
				</port>
			</output>
		</layer>
		<layer id="93" name="4278_const" precision="I32" type="Const">
			<output>
				<port id="1">
					<dim>4</dim>
				</port>
			</output>
			<blobs>
				<custom offset="813308" size="16"/>
			</blobs>
		</layer>
		<layer id="94" name="char_embedding/cnn_6/Max/FinalReshape" precision="FP32" type="Reshape">
			<input>
				<port id="0">
					<dim>1</dim>
					<dim>1024</dim>
					<dim>1</dim>
					<dim>1</dim>
				</port>
				<port id="1">
					<dim>4</dim>
				</port>
			</input>
			<output>
				<port id="2">
					<dim>1</dim>
					<dim>1024</dim>
					<dim>1</dim>
					<dim>1</dim>
				</port>
			</output>
		</layer>
		<layer id="95" name="char_embedding/cnn_6/Max/Transpose" precision="FP32" type="Permute">
			<data order="0,2,3,1"/>
			<input>
				<port id="0">
					<dim>1</dim>
					<dim>1024</dim>
					<dim>1</dim>
					<dim>1</dim>
				</port>
			</input>
			<output>
				<port id="1">
					<dim>1</dim>
					<dim>1</dim>
					<dim>1</dim>
					<dim>1024</dim>
				</port>
			</output>
		</layer>
		<layer id="96" name="char_embedding/cnn_6/Reshape_1/shape/Output_0/Data__const" precision="I32" type="Const">
			<output>
				<port id="1">
					<dim>2</dim>
				</port>
			</output>
			<blobs>
				<custom offset="813324" size="8"/>
			</blobs>
		</layer>
		<layer id="97" name="char_embedding/cnn_6/Reshape_1" precision="FP32" type="Reshape">
			<input>
				<port id="0">
					<dim>1</dim>
					<dim>1</dim>
					<dim>1</dim>
					<dim>1024</dim>
				</port>
				<port id="1">
					<dim>2</dim>
				</port>
			</input>
			<output>
				<port id="2">
					<dim>1</dim>
					<dim>1024</dim>
				</port>
			</output>
		</layer>
		<layer id="98" name="char_embedding/cnn_7/Reshape/shape/Output_0/Data__const" precision="I32" type="Const">
			<output>
				<port id="1">
					<dim>4</dim>
				</port>
			</output>
			<blobs>
				<custom offset="16388" size="16"/>
			</blobs>
		</layer>
		<layer id="99" name="char_embedding/cnn_7/Reshape" precision="FP32" type="Reshape">
			<input>
				<port id="0">
					<dim>50</dim>
					<dim>16</dim>
				</port>
				<port id="1">
					<dim>4</dim>
				</port>
			</input>
			<output>
				<port id="2">
					<dim>1</dim>
					<dim>50</dim>
					<dim>16</dim>
					<dim>1</dim>
				</port>
			</output>
		</layer>
		<layer id="100" name="char_embedding/cnn_7/Reshape/Transpose" precision="FP32" type="Permute">
			<data order="0,3,1,2"/>
			<input>
				<port id="0">
					<dim>1</dim>
					<dim>50</dim>
					<dim>16</dim>
					<dim>1</dim>
				</port>
			</input>
			<output>
				<port id="1">
					<dim>1</dim>
					<dim>1</dim>
					<dim>50</dim>
					<dim>16</dim>
				</port>
			</output>
		</layer>
		<layer id="101" name="char_embedding/cnn_7/Conv2D" precision="FP32" type="Convolution">
			<data auto_pad="valid" dilations="1,1" group="1" kernel="7,16" output="2048" pads_begin="0,0" pads_end="0,0" strides="1,1"/>
			<input>
				<port id="0">
					<dim>1</dim>
					<dim>1</dim>
					<dim>50</dim>
					<dim>16</dim>
				</port>
			</input>
			<output>
				<port id="3">
					<dim>1</dim>
					<dim>2048</dim>
					<dim>44</dim>
					<dim>1</dim>
				</port>
			</output>
			<blobs>
				<weights offset="813332" size="917504"/>
				<biases offset="1730836" size="8192"/>
			</blobs>
		</layer>
		<layer id="102" name="char_embedding/cnn_7/Relu" precision="FP32" type="ReLU">
			<input>
				<port id="0">
					<dim>1</dim>
					<dim>2048</dim>
					<dim>44</dim>
					<dim>1</dim>
				</port>
			</input>
			<output>
				<port id="1">
					<dim>1</dim>
					<dim>2048</dim>
					<dim>44</dim>
					<dim>1</dim>
				</port>
			</output>
		</layer>
		<layer id="103" name="4312_const" precision="I32" type="Const">
			<output>
				<port id="1">
					<dim>4</dim>
				</port>
			</output>
			<blobs>
				<custom offset="1739028" size="16"/>
			</blobs>
		</layer>
		<layer id="104" name="char_embedding/cnn_7/Max/Reshape" precision="FP32" type="Reshape">
			<input>
				<port id="0">
					<dim>1</dim>
					<dim>2048</dim>
					<dim>44</dim>
					<dim>1</dim>
				</port>
				<port id="1">
					<dim>4</dim>
				</port>
			</input>
			<output>
				<port id="2">
					<dim>1</dim>
					<dim>2048</dim>
					<dim>44</dim>
					<dim>1</dim>
				</port>
			</output>
		</layer>
		<layer id="105" name="char_embedding/cnn_7/Max/Pool" precision="FP32" type="Pooling">
			<data exclude-pad="false" kernel="44,1" pads_begin="0,0" pads_end="0,0" pool-method="max" strides="1,1"/>
			<input>
				<port id="0">
					<dim>1</dim>
					<dim>2048</dim>
					<dim>44</dim>
					<dim>1</dim>
				</port>
			</input>
			<output>
				<port id="1">
					<dim>1</dim>
					<dim>2048</dim>
					<dim>1</dim>
					<dim>1</dim>
				</port>
			</output>
		</layer>
		<layer id="106" name="4314_const" precision="I32" type="Const">
			<output>
				<port id="1">
					<dim>4</dim>
				</port>
			</output>
			<blobs>
				<custom offset="1739044" size="16"/>
			</blobs>
		</layer>
		<layer id="107" name="char_embedding/cnn_7/Max/FinalReshape" precision="FP32" type="Reshape">
			<input>
				<port id="0">
					<dim>1</dim>
					<dim>2048</dim>
					<dim>1</dim>
					<dim>1</dim>
				</port>
				<port id="1">
					<dim>4</dim>
				</port>
			</input>
			<output>
				<port id="2">
					<dim>1</dim>
					<dim>2048</dim>
					<dim>1</dim>
					<dim>1</dim>
				</port>
			</output>
		</layer>
		<layer id="108" name="char_embedding/cnn_7/Max/Transpose" precision="FP32" type="Permute">
			<data order="0,2,3,1"/>
			<input>
				<port id="0">
					<dim>1</dim>
					<dim>2048</dim>
					<dim>1</dim>
					<dim>1</dim>
				</port>
			</input>
			<output>
				<port id="1">
					<dim>1</dim>
					<dim>1</dim>
					<dim>1</dim>
					<dim>2048</dim>
				</port>
			</output>
		</layer>
		<layer id="109" name="char_embedding/cnn_7/Reshape_1/shape/Output_0/Data__const" precision="I32" type="Const">
			<output>
				<port id="1">
					<dim>2</dim>
				</port>
			</output>
			<blobs>
				<custom offset="1739060" size="8"/>
			</blobs>
		</layer>
		<layer id="110" name="char_embedding/cnn_7/Reshape_1" precision="FP32" type="Reshape">
			<input>
				<port id="0">
					<dim>1</dim>
					<dim>1</dim>
					<dim>1</dim>
					<dim>2048</dim>
				</port>
				<port id="1">
					<dim>2</dim>
				</port>
			</input>
			<output>
				<port id="2">
					<dim>1</dim>
					<dim>2048</dim>
				</port>
			</output>
		</layer>
		<layer id="111" name="char_embedding/concat_7" precision="FP32" type="Concat">
			<data axis="1"/>
			<input>
				<port id="0">
					<dim>1</dim>
					<dim>32</dim>
				</port>
				<port id="1">
					<dim>1</dim>
					<dim>32</dim>
				</port>
				<port id="2">
					<dim>1</dim>
					<dim>64</dim>
				</port>
				<port id="3">
					<dim>1</dim>
					<dim>128</dim>
				</port>
				<port id="4">
					<dim>1</dim>
					<dim>256</dim>
				</port>
				<port id="5">
					<dim>1</dim>
					<dim>512</dim>
				</port>
				<port id="6">
					<dim>1</dim>
					<dim>1024</dim>
				</port>
				<port id="7">
					<dim>1</dim>
					<dim>2048</dim>
				</port>
			</input>
			<output>
				<port id="8">
					<dim>1</dim>
					<dim>4096</dim>
				</port>
			</output>
		</layer>
		<layer id="112" name="char_embedding/dense_0/gate/MatMul" precision="FP32" type="FullyConnected">
			<data out-size="4096"/>
			<input>
				<port id="0">
					<dim>1</dim>
					<dim>4096</dim>
				</port>
			</input>
			<output>
				<port id="3">
					<dim>1</dim>
					<dim>4096</dim>
				</port>
			</output>
			<blobs>
				<weights offset="1739068" size="67108864"/>
				<biases offset="68847932" size="16384"/>
			</blobs>
		</layer>
		<layer id="113" name="char_embedding/dense_0/gate/Sigmoid" precision="FP32" type="Activation">
			<data type="sigmoid"/>
			<input>
				<port id="0">
					<dim>1</dim>
					<dim>4096</dim>
				</port>
			</input>
			<output>
				<port id="1">
					<dim>1</dim>
					<dim>4096</dim>
				</port>
			</output>
		</layer>
		<layer id="114" name="char_embedding/dense_0/tr/MatMul" precision="FP32" type="FullyConnected">
			<data out-size="4096"/>
			<input>
				<port id="0">
					<dim>1</dim>
					<dim>4096</dim>
				</port>
			</input>
			<output>
				<port id="3">
					<dim>1</dim>
					<dim>4096</dim>
				</port>
			</output>
			<blobs>
				<weights offset="68864316" size="67108864"/>
				<biases offset="135973180" size="16384"/>
			</blobs>
		</layer>
		<layer id="115" name="char_embedding/dense_0/tr/Relu" precision="FP32" type="ReLU">
			<input>
				<port id="0">
					<dim>1</dim>
					<dim>4096</dim>
				</port>
			</input>
			<output>
				<port id="1">
					<dim>1</dim>
					<dim>4096</dim>
				</port>
			</output>
		</layer>
		<layer id="116" name="char_embedding/dense_0/mul" precision="FP32" type="Eltwise">
			<data operation="mul"/>
			<input>
				<port id="0">
					<dim>1</dim>
					<dim>4096</dim>
				</port>
				<port id="1">
					<dim>1</dim>
					<dim>4096</dim>
				</port>
			</input>
			<output>
				<port id="2">
					<dim>1</dim>
					<dim>4096</dim>
				</port>
			</output>
		</layer>
		<layer id="117" name="char_embedding/dense_0/sub/negate_/fused_power" precision="FP32" type="Power">
			<data power="1" scale="-1" shift="1.0"/>
			<input>
				<port id="0">
					<dim>1</dim>
					<dim>4096</dim>
				</port>
			</input>
			<output>
				<port id="1">
					<dim>1</dim>
					<dim>4096</dim>
				</port>
			</output>
		</layer>
		<layer id="118" name="char_embedding/dense_0/mul_1" precision="FP32" type="Eltwise">
			<data operation="mul"/>
			<input>
				<port id="0">
					<dim>1</dim>
					<dim>4096</dim>
				</port>
				<port id="1">
					<dim>1</dim>
					<dim>4096</dim>
				</port>
			</input>
			<output>
				<port id="2">
					<dim>1</dim>
					<dim>4096</dim>
				</port>
			</output>
		</layer>
		<layer id="119" name="char_embedding/dense_0/add" precision="FP32" type="Eltwise">
			<data operation="sum"/>
			<input>
				<port id="0">
					<dim>1</dim>
					<dim>4096</dim>
				</port>
				<port id="1">
					<dim>1</dim>
					<dim>4096</dim>
				</port>
			</input>
			<output>
				<port id="2">
					<dim>1</dim>
					<dim>4096</dim>
				</port>
			</output>
		</layer>
		<layer id="120" name="char_embedding/dense_1/gate/MatMul" precision="FP32" type="FullyConnected">
			<data out-size="4096"/>
			<input>
				<port id="0">
					<dim>1</dim>
					<dim>4096</dim>
				</port>
			</input>
			<output>
				<port id="3">
					<dim>1</dim>
					<dim>4096</dim>
				</port>
			</output>
			<blobs>
				<weights offset="135989564" size="67108864"/>
				<biases offset="203098428" size="16384"/>
			</blobs>
		</layer>
		<layer id="121" name="char_embedding/dense_1/gate/Sigmoid" precision="FP32" type="Activation">
			<data type="sigmoid"/>
			<input>
				<port id="0">
					<dim>1</dim>
					<dim>4096</dim>
				</port>
			</input>
			<output>
				<port id="1">
					<dim>1</dim>
					<dim>4096</dim>
				</port>
			</output>
		</layer>
		<layer id="122" name="char_embedding/dense_1/tr/MatMul" precision="FP32" type="FullyConnected">
			<data out-size="4096"/>
			<input>
				<port id="0">
					<dim>1</dim>
					<dim>4096</dim>
				</port>
			</input>
			<output>
				<port id="3">
					<dim>1</dim>
					<dim>4096</dim>
				</port>
			</output>
			<blobs>
				<weights offset="203114812" size="67108864"/>
				<biases offset="270223676" size="16384"/>
			</blobs>
		</layer>
		<layer id="123" name="char_embedding/dense_1/tr/Relu" precision="FP32" type="ReLU">
			<input>
				<port id="0">
					<dim>1</dim>
					<dim>4096</dim>
				</port>
			</input>
			<output>
				<port id="1">
					<dim>1</dim>
					<dim>4096</dim>
				</port>
			</output>
		</layer>
		<layer id="124" name="char_embedding/dense_1/mul" precision="FP32" type="Eltwise">
			<data operation="mul"/>
			<input>
				<port id="0">
					<dim>1</dim>
					<dim>4096</dim>
				</port>
				<port id="1">
					<dim>1</dim>
					<dim>4096</dim>
				</port>
			</input>
			<output>
				<port id="2">
					<dim>1</dim>
					<dim>4096</dim>
				</port>
			</output>
		</layer>
		<layer id="125" name="char_embedding/dense_1/sub/negate_/fused_power" precision="FP32" type="Power">
			<data power="1" scale="-1" shift="1.0"/>
			<input>
				<port id="0">
					<dim>1</dim>
					<dim>4096</dim>
				</port>
			</input>
			<output>
				<port id="1">
					<dim>1</dim>
					<dim>4096</dim>
				</port>
			</output>
		</layer>
		<layer id="126" name="char_embedding/dense_1/mul_1" precision="FP32" type="Eltwise">
			<data operation="mul"/>
			<input>
				<port id="0">
					<dim>1</dim>
					<dim>4096</dim>
				</port>
				<port id="1">
					<dim>1</dim>
					<dim>4096</dim>
				</port>
			</input>
			<output>
				<port id="2">
					<dim>1</dim>
					<dim>4096</dim>
				</port>
			</output>
		</layer>
		<layer id="127" name="char_embedding/dense_1/add" precision="FP32" type="Eltwise">
			<data operation="sum"/>
			<input>
				<port id="0">
					<dim>1</dim>
					<dim>4096</dim>
				</port>
				<port id="1">
					<dim>1</dim>
					<dim>4096</dim>
				</port>
			</input>
			<output>
				<port id="2">
					<dim>1</dim>
					<dim>4096</dim>
				</port>
			</output>
		</layer>
		<layer id="128" name="char_embedding/proj/MatMul" precision="FP32" type="FullyConnected">
			<data out-size="1024"/>
			<input>
				<port id="0">
					<dim>1</dim>
					<dim>4096</dim>
				</port>
			</input>
			<output>
				<port id="3">
					<dim>1</dim>
					<dim>1024</dim>
				</port>
			</output>
			<blobs>
				<weights offset="270240060" size="16777216"/>
				<biases offset="287017276" size="4096"/>
			</blobs>
		</layer>
		<layer id="129" name="char_embedding/Reshape_1/shape/Output_0/Data__const" precision="I32" type="Const">
			<output>
				<port id="1">
					<dim>3</dim>
				</port>
			</output>
			<blobs>
				<custom offset="287021372" size="12"/>
			</blobs>
		</layer>
		<layer id="130" name="char_embedding/Reshape_1" precision="FP32" type="Reshape">
			<input>
				<port id="0">
					<dim>1</dim>
					<dim>1024</dim>
				</port>
				<port id="1">
					<dim>3</dim>
				</port>
			</input>
			<output>
				<port id="2">
					<dim>1</dim>
					<dim>1</dim>
					<dim>1024</dim>
				</port>
			</output>
		</layer>
		<layer id="131" name="Reshape/shape/Output_0/Data__const" precision="I32" type="Const">
			<output>
				<port id="1">
					<dim>2</dim>
				</port>
			</output>
			<blobs>
				<custom offset="287021384" size="8"/>
			</blobs>
		</layer>
		<layer id="132" name="Reshape" precision="FP32" type="Reshape">
			<input>
				<port id="0">
					<dim>1</dim>
					<dim>1</dim>
					<dim>1024</dim>
				</port>
				<port id="1">
					<dim>2</dim>
				</port>
			</input>
			<output>
				<port id="2">
					<dim>1</dim>
					<dim>1024</dim>
				</port>
			</output>
		</layer>
		<layer id="133" name="Variable/read/placeholder_port_0" precision="FP32" type="Input">
			<output>
				<port id="0">
					<dim>1</dim>
					<dim>9216</dim>
				</port>
			</output>
		</layer>
		<layer id="134" name="1973/Split" precision="FP32" type="Split">
			<data axis="1"/>
			<input>
				<port id="0">
					<dim>1</dim>
					<dim>9216</dim>
				</port>
			</input>
			<output>
				<port id="1">
					<dim>1</dim>
					<dim>8192</dim>
				</port>
				<port id="2">
					<dim>1</dim>
					<dim>1024</dim>
				</port>
			</output>
		</layer>
		<layer id="135" name="lstm/lstm_0/LSTMCellWithCachedConcat/concat" precision="FP32" type="Concat">
			<data axis="1"/>
			<input>
				<port id="0">
					<dim>1</dim>
					<dim>1024</dim>
				</port>
				<port id="1">
					<dim>1</dim>
					<dim>1024</dim>
				</port>
			</input>
			<output>
				<port id="2">
					<dim>1</dim>
					<dim>2048</dim>
				</port>
			</output>
		</layer>
		<layer id="136" name="lstm/lstm_0/LSTMCellWithCachedConcat/MatMul" precision="FP32" type="FullyConnected">
			<data out-size="32768"/>
			<input>
				<port id="0">
					<dim>1</dim>
					<dim>2048</dim>
				</port>
			</input>
			<output>
				<port id="3">
					<dim>1</dim>
					<dim>32768</dim>
				</port>
			</output>
			<blobs>
				<weights offset="287021392" size="268435456"/>
				<biases offset="555456848" size="131072"/>
			</blobs>
		</layer>
		<layer id="137" name="lstm/lstm_0/LSTMCellWithCachedConcat/split" precision="FP32" type="Split">
			<data axis="1"/>
			<input>
				<port id="0">
					<dim>1</dim>
					<dim>32768</dim>
				</port>
			</input>
			<output>
				<port id="1">
					<dim>1</dim>
					<dim>8192</dim>
				</port>
				<port id="2">
					<dim>1</dim>
					<dim>8192</dim>
				</port>
				<port id="3">
					<dim>1</dim>
					<dim>8192</dim>
				</port>
				<port id="4">
					<dim>1</dim>
					<dim>8192</dim>
				</port>
			</output>
		</layer>
		<layer id="138" name="lstm/lstm_0/LSTMCellWithCachedConcat/add" precision="FP32" type="Power">
			<data power="1" scale="1" shift="1.0"/>
			<input>
				<port id="0">
					<dim>1</dim>
					<dim>8192</dim>
				</port>
			</input>
			<output>
				<port id="1">
					<dim>1</dim>
					<dim>8192</dim>
				</port>
			</output>
		</layer>
		<layer id="139" name="ScaleShift/lstm/lstm_0/LSTMCellWithCachedConcat/mul" precision="FP32" type="ScaleShift">
			<input>
				<port id="0">
					<dim>1</dim>
					<dim>8192</dim>
				</port>
			</input>
			<output>
				<port id="3">
					<dim>1</dim>
					<dim>8192</dim>
				</port>
			</output>
			<blobs>
				<weights offset="555587920" size="32768"/>
				<biases offset="555620688" size="32768"/>
			</blobs>
		</layer>
		<layer id="140" name="lstm/lstm_0/LSTMCellWithCachedConcat/add_1" precision="FP32" type="Eltwise">
			<data operation="sum"/>
			<input>
				<port id="0">
					<dim>1</dim>
					<dim>8192</dim>
				</port>
				<port id="1">
					<dim>1</dim>
					<dim>8192</dim>
				</port>
			</input>
			<output>
				<port id="2">
					<dim>1</dim>
					<dim>8192</dim>
				</port>
			</output>
		</layer>
		<layer id="141" name="lstm/lstm_0/LSTMCellWithCachedConcat/Sigmoid" precision="FP32" type="Activation">
			<data type="sigmoid"/>
			<input>
				<port id="0">
					<dim>1</dim>
					<dim>8192</dim>
				</port>
			</input>
			<output>
				<port id="1">
					<dim>1</dim>
					<dim>8192</dim>
				</port>
			</output>
		</layer>
		<layer id="142" name="lstm/lstm_0/LSTMCellWithCachedConcat/mul_1" precision="FP32" type="Eltwise">
			<data operation="mul"/>
			<input>
				<port id="0">
					<dim>1</dim>
					<dim>8192</dim>
				</port>
				<port id="1">
					<dim>1</dim>
					<dim>8192</dim>
				</port>
			</input>
			<output>
				<port id="2">
					<dim>1</dim>
					<dim>8192</dim>
				</port>
			</output>
		</layer>
		<layer id="143" name="ScaleShift/lstm/lstm_0/LSTMCellWithCachedConcat/mul_2" precision="FP32" type="ScaleShift">
			<input>
				<port id="0">
					<dim>1</dim>
					<dim>8192</dim>
				</port>
			</input>
			<output>
				<port id="3">
					<dim>1</dim>
					<dim>8192</dim>
				</port>
			</output>
			<blobs>
				<weights offset="555653456" size="32768"/>
				<biases offset="555620688" size="32768"/>
			</blobs>
		</layer>
		<layer id="144" name="lstm/lstm_0/LSTMCellWithCachedConcat/add_2" precision="FP32" type="Eltwise">
			<data operation="sum"/>
			<input>
				<port id="0">
					<dim>1</dim>
					<dim>8192</dim>
				</port>
				<port id="1">
					<dim>1</dim>
					<dim>8192</dim>
				</port>
			</input>
			<output>
				<port id="2">
					<dim>1</dim>
					<dim>8192</dim>
				</port>
			</output>
		</layer>
		<layer id="145" name="lstm/lstm_0/LSTMCellWithCachedConcat/Sigmoid_1" precision="FP32" type="Activation">
			<data type="sigmoid"/>
			<input>
				<port id="0">
					<dim>1</dim>
					<dim>8192</dim>
				</port>
			</input>
			<output>
				<port id="1">
					<dim>1</dim>
					<dim>8192</dim>
				</port>
			</output>
		</layer>
		<layer id="146" name="lstm/lstm_0/LSTMCellWithCachedConcat/Tanh" precision="FP32" type="Activation">
			<data type="tanh"/>
			<input>
				<port id="0">
					<dim>1</dim>
					<dim>8192</dim>
				</port>
			</input>
			<output>
				<port id="1">
					<dim>1</dim>
					<dim>8192</dim>
				</port>
			</output>
		</layer>
		<layer id="147" name="lstm/lstm_0/LSTMCellWithCachedConcat/mul_3" precision="FP32" type="Eltwise">
			<data operation="mul"/>
			<input>
				<port id="0">
					<dim>1</dim>
					<dim>8192</dim>
				</port>
				<port id="1">
					<dim>1</dim>
					<dim>8192</dim>
				</port>
			</input>
			<output>
				<port id="2">
					<dim>1</dim>
					<dim>8192</dim>
				</port>
			</output>
		</layer>
		<layer id="148" name="lstm/lstm_0/LSTMCellWithCachedConcat/add_3" precision="FP32" type="Eltwise">
			<data operation="sum"/>
			<input>
				<port id="0">
					<dim>1</dim>
					<dim>8192</dim>
				</port>
				<port id="1">
					<dim>1</dim>
					<dim>8192</dim>
				</port>
			</input>
			<output>
				<port id="2">
					<dim>1</dim>
					<dim>8192</dim>
				</port>
			</output>
		</layer>
		<layer id="149" name="ScaleShift/lstm/lstm_0/LSTMCellWithCachedConcat/mul_4" precision="FP32" type="ScaleShift">
			<input>
				<port id="0">
					<dim>1</dim>
					<dim>8192</dim>
				</port>
			</input>
			<output>
				<port id="3">
					<dim>1</dim>
					<dim>8192</dim>
				</port>
			</output>
			<blobs>
				<weights offset="555686224" size="32768"/>
				<biases offset="555620688" size="32768"/>
			</blobs>
		</layer>
		<layer id="150" name="lstm/lstm_0/LSTMCellWithCachedConcat/add_4" precision="FP32" type="Eltwise">
			<data operation="sum"/>
			<input>
				<port id="0">
					<dim>1</dim>
					<dim>8192</dim>
				</port>
				<port id="1">
					<dim>1</dim>
					<dim>8192</dim>
				</port>
			</input>
			<output>
				<port id="2">
					<dim>1</dim>
					<dim>8192</dim>
				</port>
			</output>
		</layer>
		<layer id="151" name="lstm/lstm_0/LSTMCellWithCachedConcat/Sigmoid_2" precision="FP32" type="Activation">
			<data type="sigmoid"/>
			<input>
				<port id="0">
					<dim>1</dim>
					<dim>8192</dim>
				</port>
			</input>
			<output>
				<port id="1">
					<dim>1</dim>
					<dim>8192</dim>
				</port>
			</output>
		</layer>
		<layer id="152" name="lstm/lstm_0/LSTMCellWithCachedConcat/Tanh_1" precision="FP32" type="Activation">
			<data type="tanh"/>
			<input>
				<port id="0">
					<dim>1</dim>
					<dim>8192</dim>
				</port>
			</input>
			<output>
				<port id="1">
					<dim>1</dim>
					<dim>8192</dim>
				</port>
			</output>
		</layer>
		<layer id="153" name="lstm/lstm_0/LSTMCellWithCachedConcat/mul_5" precision="FP32" type="Eltwise">
			<data operation="mul"/>
			<input>
				<port id="0">
					<dim>1</dim>
					<dim>8192</dim>
				</port>
				<port id="1">
					<dim>1</dim>
					<dim>8192</dim>
				</port>
			</input>
			<output>
				<port id="2">
					<dim>1</dim>
					<dim>8192</dim>
				</port>
			</output>
		</layer>
		<layer id="154" name="lstm/lstm_0/LSTMCellWithCachedConcat/MatMul_1" precision="FP32" type="FullyConnected">
			<data out-size="1024"/>
			<input>
				<port id="0">
					<dim>1</dim>
					<dim>8192</dim>
				</port>
			</input>
			<output>
				<port id="2">
					<dim>1</dim>
					<dim>1024</dim>
				</port>
			</output>
			<blobs>
				<weights offset="555718992" size="33554432"/>
			</blobs>
		</layer>
		<layer id="155" name="lstm/lstm_0/concat_2" precision="FP32" type="Concat">
			<data axis="1"/>
			<input>
				<port id="0">
					<dim>1</dim>
					<dim>8192</dim>
				</port>
				<port id="1">
					<dim>1</dim>
					<dim>1024</dim>
				</port>
			</input>
			<output>
				<port id="2">
					<dim>1</dim>
					<dim>9216</dim>
				</port>
			</output>
		</layer>
		<layer id="156" name="Variable_1/read/placeholder_port_0" precision="FP32" type="Input">
			<output>
				<port id="0">
					<dim>1</dim>
					<dim>9216</dim>
				</port>
			</output>
		</layer>
		<layer id="157" name="1968/Split" precision="FP32" type="Split">
			<data axis="1"/>
			<input>
				<port id="0">
					<dim>1</dim>
					<dim>9216</dim>
				</port>
			</input>
			<output>
				<port id="1">
					<dim>1</dim>
					<dim>8192</dim>
				</port>
				<port id="2">
					<dim>1</dim>
					<dim>1024</dim>
				</port>
			</output>
		</layer>
		<layer id="158" name="lstm/lstm_1/LSTMCellWithCachedConcat/concat" precision="FP32" type="Concat">
			<data axis="1"/>
			<input>
				<port id="0">
					<dim>1</dim>
					<dim>1024</dim>
				</port>
				<port id="1">
					<dim>1</dim>
					<dim>1024</dim>
				</port>
			</input>
			<output>
				<port id="2">
					<dim>1</dim>
					<dim>2048</dim>
				</port>
			</output>
		</layer>
		<layer id="159" name="lstm/lstm_1/LSTMCellWithCachedConcat/MatMul" precision="FP32" type="FullyConnected">
			<data out-size="32768"/>
			<input>
				<port id="0">
					<dim>1</dim>
					<dim>2048</dim>
				</port>
			</input>
			<output>
				<port id="3">
					<dim>1</dim>
					<dim>32768</dim>
				</port>
			</output>
			<blobs>
				<weights offset="589273424" size="268435456"/>
				<biases offset="857708880" size="131072"/>
			</blobs>
		</layer>
		<layer id="160" name="lstm/lstm_1/LSTMCellWithCachedConcat/split" precision="FP32" type="Split">
			<data axis="1"/>
			<input>
				<port id="0">
					<dim>1</dim>
					<dim>32768</dim>
				</port>
			</input>
			<output>
				<port id="1">
					<dim>1</dim>
					<dim>8192</dim>
				</port>
				<port id="2">
					<dim>1</dim>
					<dim>8192</dim>
				</port>
				<port id="3">
					<dim>1</dim>
					<dim>8192</dim>
				</port>
				<port id="4">
					<dim>1</dim>
					<dim>8192</dim>
				</port>
			</output>
		</layer>
		<layer id="161" name="lstm/lstm_1/LSTMCellWithCachedConcat/add" precision="FP32" type="Power">
			<data power="1" scale="1" shift="1.0"/>
			<input>
				<port id="0">
					<dim>1</dim>
					<dim>8192</dim>
				</port>
			</input>
			<output>
				<port id="1">
					<dim>1</dim>
					<dim>8192</dim>
				</port>
			</output>
		</layer>
		<layer id="162" name="ScaleShift/lstm/lstm_1/LSTMCellWithCachedConcat/mul" precision="FP32" type="ScaleShift">
			<input>
				<port id="0">
					<dim>1</dim>
					<dim>8192</dim>
				</port>
			</input>
			<output>
				<port id="3">
					<dim>1</dim>
					<dim>8192</dim>
				</port>
			</output>
			<blobs>
				<weights offset="857839952" size="32768"/>
				<biases offset="555620688" size="32768"/>
			</blobs>
		</layer>
		<layer id="163" name="lstm/lstm_1/LSTMCellWithCachedConcat/add_1" precision="FP32" type="Eltwise">
			<data operation="sum"/>
			<input>
				<port id="0">
					<dim>1</dim>
					<dim>8192</dim>
				</port>
				<port id="1">
					<dim>1</dim>
					<dim>8192</dim>
				</port>
			</input>
			<output>
				<port id="2">
					<dim>1</dim>
					<dim>8192</dim>
				</port>
			</output>
		</layer>
		<layer id="164" name="lstm/lstm_1/LSTMCellWithCachedConcat/Sigmoid" precision="FP32" type="Activation">
			<data type="sigmoid"/>
			<input>
				<port id="0">
					<dim>1</dim>
					<dim>8192</dim>
				</port>
			</input>
			<output>
				<port id="1">
					<dim>1</dim>
					<dim>8192</dim>
				</port>
			</output>
		</layer>
		<layer id="165" name="lstm/lstm_1/LSTMCellWithCachedConcat/mul_1" precision="FP32" type="Eltwise">
			<data operation="mul"/>
			<input>
				<port id="0">
					<dim>1</dim>
					<dim>8192</dim>
				</port>
				<port id="1">
					<dim>1</dim>
					<dim>8192</dim>
				</port>
			</input>
			<output>
				<port id="2">
					<dim>1</dim>
					<dim>8192</dim>
				</port>
			</output>
		</layer>
		<layer id="166" name="ScaleShift/lstm/lstm_1/LSTMCellWithCachedConcat/mul_2" precision="FP32" type="ScaleShift">
			<input>
				<port id="0">
					<dim>1</dim>
					<dim>8192</dim>
				</port>
			</input>
			<output>
				<port id="3">
					<dim>1</dim>
					<dim>8192</dim>
				</port>
			</output>
			<blobs>
				<weights offset="857872720" size="32768"/>
				<biases offset="555620688" size="32768"/>
			</blobs>
		</layer>
		<layer id="167" name="lstm/lstm_1/LSTMCellWithCachedConcat/add_2" precision="FP32" type="Eltwise">
			<data operation="sum"/>
			<input>
				<port id="0">
					<dim>1</dim>
					<dim>8192</dim>
				</port>
				<port id="1">
					<dim>1</dim>
					<dim>8192</dim>
				</port>
			</input>
			<output>
				<port id="2">
					<dim>1</dim>
					<dim>8192</dim>
				</port>
			</output>
		</layer>
		<layer id="168" name="lstm/lstm_1/LSTMCellWithCachedConcat/Sigmoid_1" precision="FP32" type="Activation">
			<data type="sigmoid"/>
			<input>
				<port id="0">
					<dim>1</dim>
					<dim>8192</dim>
				</port>
			</input>
			<output>
				<port id="1">
					<dim>1</dim>
					<dim>8192</dim>
				</port>
			</output>
		</layer>
		<layer id="169" name="lstm/lstm_1/LSTMCellWithCachedConcat/Tanh" precision="FP32" type="Activation">
			<data type="tanh"/>
			<input>
				<port id="0">
					<dim>1</dim>
					<dim>8192</dim>
				</port>
			</input>
			<output>
				<port id="1">
					<dim>1</dim>
					<dim>8192</dim>
				</port>
			</output>
		</layer>
		<layer id="170" name="lstm/lstm_1/LSTMCellWithCachedConcat/mul_3" precision="FP32" type="Eltwise">
			<data operation="mul"/>
			<input>
				<port id="0">
					<dim>1</dim>
					<dim>8192</dim>
				</port>
				<port id="1">
					<dim>1</dim>
					<dim>8192</dim>
				</port>
			</input>
			<output>
				<port id="2">
					<dim>1</dim>
					<dim>8192</dim>
				</port>
			</output>
		</layer>
		<layer id="171" name="lstm/lstm_1/LSTMCellWithCachedConcat/add_3" precision="FP32" type="Eltwise">
			<data operation="sum"/>
			<input>
				<port id="0">
					<dim>1</dim>
					<dim>8192</dim>
				</port>
				<port id="1">
					<dim>1</dim>
					<dim>8192</dim>
				</port>
			</input>
			<output>
				<port id="2">
					<dim>1</dim>
					<dim>8192</dim>
				</port>
			</output>
		</layer>
		<layer id="172" name="ScaleShift/lstm/lstm_1/LSTMCellWithCachedConcat/mul_4" precision="FP32" type="ScaleShift">
			<input>
				<port id="0">
					<dim>1</dim>
					<dim>8192</dim>
				</port>
			</input>
			<output>
				<port id="3">
					<dim>1</dim>
					<dim>8192</dim>
				</port>
			</output>
			<blobs>
				<weights offset="857905488" size="32768"/>
				<biases offset="555620688" size="32768"/>
			</blobs>
		</layer>
		<layer id="173" name="lstm/lstm_1/LSTMCellWithCachedConcat/add_4" precision="FP32" type="Eltwise">
			<data operation="sum"/>
			<input>
				<port id="0">
					<dim>1</dim>
					<dim>8192</dim>
				</port>
				<port id="1">
					<dim>1</dim>
					<dim>8192</dim>
				</port>
			</input>
			<output>
				<port id="2">
					<dim>1</dim>
					<dim>8192</dim>
				</port>
			</output>
		</layer>
		<layer id="174" name="lstm/lstm_1/LSTMCellWithCachedConcat/Sigmoid_2" precision="FP32" type="Activation">
			<data type="sigmoid"/>
			<input>
				<port id="0">
					<dim>1</dim>
					<dim>8192</dim>
				</port>
			</input>
			<output>
				<port id="1">
					<dim>1</dim>
					<dim>8192</dim>
				</port>
			</output>
		</layer>
		<layer id="175" name="lstm/lstm_1/LSTMCellWithCachedConcat/Tanh_1" precision="FP32" type="Activation">
			<data type="tanh"/>
			<input>
				<port id="0">
					<dim>1</dim>
					<dim>8192</dim>
				</port>
			</input>
			<output>
				<port id="1">
					<dim>1</dim>
					<dim>8192</dim>
				</port>
			</output>
		</layer>
		<layer id="176" name="lstm/lstm_1/LSTMCellWithCachedConcat/mul_5" precision="FP32" type="Eltwise">
			<data operation="mul"/>
			<input>
				<port id="0">
					<dim>1</dim>
					<dim>8192</dim>
				</port>
				<port id="1">
					<dim>1</dim>
					<dim>8192</dim>
				</port>
			</input>
			<output>
				<port id="2">
					<dim>1</dim>
					<dim>8192</dim>
				</port>
			</output>
		</layer>
		<layer id="177" name="lstm/lstm_1/LSTMCellWithCachedConcat/MatMul_1" precision="FP32" type="FullyConnected">
			<data out-size="1024"/>
			<input>
				<port id="0">
					<dim>1</dim>
					<dim>8192</dim>
				</port>
			</input>
			<output>
				<port id="2">
					<dim>1</dim>
					<dim>1024</dim>
				</port>
			</output>
			<blobs>
				<weights offset="857938256" size="33554432"/>
			</blobs>
		</layer>
		<layer id="178" name="lstm/lstm_1/concat_2" precision="FP32" type="Concat">
			<data axis="1"/>
			<input>
				<port id="0">
					<dim>1</dim>
					<dim>8192</dim>
				</port>
				<port id="1">
					<dim>1</dim>
					<dim>1024</dim>
				</port>
			</input>
			<output>
				<port id="2">
					<dim>1</dim>
					<dim>9216</dim>
				</port>
			</output>
		</layer>
		<layer id="179" name="MatMul" precision="FP32" type="FullyConnected">
			<data out-size="800000"/>
			<input>
				<port id="0">
					<dim>1</dim>
					<dim>1024</dim>
				</port>
			</input>
			<output>
				<port id="3">
					<dim>1</dim>
					<dim>800000</dim>
				</port>
			</output>
			<blobs>
				<weights offset="891492688" size="3276800000"/>
				<biases offset="4168292688" size="3200000"/>
			</blobs>
		</layer>
		<layer id="180" name="softmax_out" precision="FP32" type="SoftMax">
			<data axis="1"/>
			<input>
				<port id="0">
					<dim>1</dim>
					<dim>800000</dim>
				</port>
			</input>
			<output>
				<port id="1">
					<dim>1</dim>
					<dim>800000</dim>
				</port>
			</output>
		</layer>
	</layers>
	<edges>
		<edge from-layer="1" from-port="0" to-layer="3" to-port="0"/>
		<edge from-layer="2" from-port="1" to-layer="3" to-port="1"/>
		<edge from-layer="3" from-port="2" to-layer="4" to-port="0"/>
		<edge from-layer="0" from-port="1" to-layer="5" to-port="0"/>
		<edge from-layer="4" from-port="1" to-layer="5" to-port="1"/>
		<edge from-layer="5" from-port="2" to-layer="6" to-port="0"/>
		<edge from-layer="4" from-port="2" to-layer="6" to-port="1"/>
		<edge from-layer="6" from-port="2" to-layer="8" to-port="0"/>
		<edge from-layer="7" from-port="1" to-layer="8" to-port="1"/>
		<edge from-layer="8" from-port="2" to-layer="9" to-port="0"/>
		<edge from-layer="9" from-port="1" to-layer="10" to-port="0"/>
		<edge from-layer="10" from-port="3" to-layer="11" to-port="0"/>
		<edge from-layer="11" from-port="1" to-layer="13" to-port="0"/>
		<edge from-layer="12" from-port="1" to-layer="13" to-port="1"/>
		<edge from-layer="13" from-port="2" to-layer="14" to-port="0"/>
		<edge from-layer="14" from-port="1" to-layer="16" to-port="0"/>
		<edge from-layer="15" from-port="1" to-layer="16" to-port="1"/>
		<edge from-layer="16" from-port="2" to-layer="17" to-port="0"/>
		<edge from-layer="17" from-port="1" to-layer="19" to-port="0"/>
		<edge from-layer="18" from-port="1" to-layer="19" to-port="1"/>
		<edge from-layer="6" from-port="2" to-layer="21" to-port="0"/>
		<edge from-layer="20" from-port="1" to-layer="21" to-port="1"/>
		<edge from-layer="21" from-port="2" to-layer="22" to-port="0"/>
		<edge from-layer="22" from-port="1" to-layer="23" to-port="0"/>
		<edge from-layer="23" from-port="3" to-layer="24" to-port="0"/>
		<edge from-layer="24" from-port="1" to-layer="26" to-port="0"/>
		<edge from-layer="25" from-port="1" to-layer="26" to-port="1"/>
		<edge from-layer="26" from-port="2" to-layer="27" to-port="0"/>
		<edge from-layer="27" from-port="1" to-layer="29" to-port="0"/>
		<edge from-layer="28" from-port="1" to-layer="29" to-port="1"/>
		<edge from-layer="29" from-port="2" to-layer="30" to-port="0"/>
		<edge from-layer="30" from-port="1" to-layer="32" to-port="0"/>
		<edge from-layer="31" from-port="1" to-layer="32" to-port="1"/>
		<edge from-layer="6" from-port="2" to-layer="34" to-port="0"/>
		<edge from-layer="33" from-port="1" to-layer="34" to-port="1"/>
		<edge from-layer="34" from-port="2" to-layer="35" to-port="0"/>
		<edge from-layer="35" from-port="1" to-layer="36" to-port="0"/>
		<edge from-layer="36" from-port="3" to-layer="37" to-port="0"/>
		<edge from-layer="37" from-port="1" to-layer="39" to-port="0"/>
		<edge from-layer="38" from-port="1" to-layer="39" to-port="1"/>
		<edge from-layer="39" from-port="2" to-layer="40" to-port="0"/>
		<edge from-layer="40" from-port="1" to-layer="42" to-port="0"/>
		<edge from-layer="41" from-port="1" to-layer="42" to-port="1"/>
		<edge from-layer="42" from-port="2" to-layer="43" to-port="0"/>
		<edge from-layer="43" from-port="1" to-layer="45" to-port="0"/>
		<edge from-layer="44" from-port="1" to-layer="45" to-port="1"/>
		<edge from-layer="6" from-port="2" to-layer="47" to-port="0"/>
		<edge from-layer="46" from-port="1" to-layer="47" to-port="1"/>
		<edge from-layer="47" from-port="2" to-layer="48" to-port="0"/>
		<edge from-layer="48" from-port="1" to-layer="49" to-port="0"/>
		<edge from-layer="49" from-port="3" to-layer="50" to-port="0"/>
		<edge from-layer="50" from-port="1" to-layer="52" to-port="0"/>
		<edge from-layer="51" from-port="1" to-layer="52" to-port="1"/>
		<edge from-layer="52" from-port="2" to-layer="53" to-port="0"/>
		<edge from-layer="53" from-port="1" to-layer="55" to-port="0"/>
		<edge from-layer="54" from-port="1" to-layer="55" to-port="1"/>
		<edge from-layer="55" from-port="2" to-layer="56" to-port="0"/>
		<edge from-layer="56" from-port="1" to-layer="58" to-port="0"/>
		<edge from-layer="57" from-port="1" to-layer="58" to-port="1"/>
		<edge from-layer="6" from-port="2" to-layer="60" to-port="0"/>
		<edge from-layer="59" from-port="1" to-layer="60" to-port="1"/>
		<edge from-layer="60" from-port="2" to-layer="61" to-port="0"/>
		<edge from-layer="61" from-port="1" to-layer="62" to-port="0"/>
		<edge from-layer="62" from-port="3" to-layer="63" to-port="0"/>
		<edge from-layer="63" from-port="1" to-layer="65" to-port="0"/>
		<edge from-layer="64" from-port="1" to-layer="65" to-port="1"/>
		<edge from-layer="65" from-port="2" to-layer="66" to-port="0"/>
		<edge from-layer="66" from-port="1" to-layer="68" to-port="0"/>
		<edge from-layer="67" from-port="1" to-layer="68" to-port="1"/>
		<edge from-layer="68" from-port="2" to-layer="69" to-port="0"/>
		<edge from-layer="69" from-port="1" to-layer="71" to-port="0"/>
		<edge from-layer="70" from-port="1" to-layer="71" to-port="1"/>
		<edge from-layer="6" from-port="2" to-layer="73" to-port="0"/>
		<edge from-layer="72" from-port="1" to-layer="73" to-port="1"/>
		<edge from-layer="73" from-port="2" to-layer="74" to-port="0"/>
		<edge from-layer="74" from-port="1" to-layer="75" to-port="0"/>
		<edge from-layer="75" from-port="3" to-layer="76" to-port="0"/>
		<edge from-layer="76" from-port="1" to-layer="78" to-port="0"/>
		<edge from-layer="77" from-port="1" to-layer="78" to-port="1"/>
		<edge from-layer="78" from-port="2" to-layer="79" to-port="0"/>
		<edge from-layer="79" from-port="1" to-layer="81" to-port="0"/>
		<edge from-layer="80" from-port="1" to-layer="81" to-port="1"/>
		<edge from-layer="81" from-port="2" to-layer="82" to-port="0"/>
		<edge from-layer="82" from-port="1" to-layer="84" to-port="0"/>
		<edge from-layer="83" from-port="1" to-layer="84" to-port="1"/>
		<edge from-layer="6" from-port="2" to-layer="86" to-port="0"/>
		<edge from-layer="85" from-port="1" to-layer="86" to-port="1"/>
		<edge from-layer="86" from-port="2" to-layer="87" to-port="0"/>
		<edge from-layer="87" from-port="1" to-layer="88" to-port="0"/>
		<edge from-layer="88" from-port="3" to-layer="89" to-port="0"/>
		<edge from-layer="89" from-port="1" to-layer="91" to-port="0"/>
		<edge from-layer="90" from-port="1" to-layer="91" to-port="1"/>
		<edge from-layer="91" from-port="2" to-layer="92" to-port="0"/>
		<edge from-layer="92" from-port="1" to-layer="94" to-port="0"/>
		<edge from-layer="93" from-port="1" to-layer="94" to-port="1"/>
		<edge from-layer="94" from-port="2" to-layer="95" to-port="0"/>
		<edge from-layer="95" from-port="1" to-layer="97" to-port="0"/>
		<edge from-layer="96" from-port="1" to-layer="97" to-port="1"/>
		<edge from-layer="6" from-port="2" to-layer="99" to-port="0"/>
		<edge from-layer="98" from-port="1" to-layer="99" to-port="1"/>
		<edge from-layer="99" from-port="2" to-layer="100" to-port="0"/>
		<edge from-layer="100" from-port="1" to-layer="101" to-port="0"/>
		<edge from-layer="101" from-port="3" to-layer="102" to-port="0"/>
		<edge from-layer="102" from-port="1" to-layer="104" to-port="0"/>
		<edge from-layer="103" from-port="1" to-layer="104" to-port="1"/>
		<edge from-layer="104" from-port="2" to-layer="105" to-port="0"/>
		<edge from-layer="105" from-port="1" to-layer="107" to-port="0"/>
		<edge from-layer="106" from-port="1" to-layer="107" to-port="1"/>
		<edge from-layer="107" from-port="2" to-layer="108" to-port="0"/>
		<edge from-layer="108" from-port="1" to-layer="110" to-port="0"/>
		<edge from-layer="109" from-port="1" to-layer="110" to-port="1"/>
		<edge from-layer="19" from-port="2" to-layer="111" to-port="0"/>
		<edge from-layer="32" from-port="2" to-layer="111" to-port="1"/>
		<edge from-layer="45" from-port="2" to-layer="111" to-port="2"/>
		<edge from-layer="58" from-port="2" to-layer="111" to-port="3"/>
		<edge from-layer="71" from-port="2" to-layer="111" to-port="4"/>
		<edge from-layer="84" from-port="2" to-layer="111" to-port="5"/>
		<edge from-layer="97" from-port="2" to-layer="111" to-port="6"/>
		<edge from-layer="110" from-port="2" to-layer="111" to-port="7"/>
		<edge from-layer="111" from-port="8" to-layer="112" to-port="0"/>
		<edge from-layer="112" from-port="3" to-layer="113" to-port="0"/>
		<edge from-layer="111" from-port="8" to-layer="114" to-port="0"/>
		<edge from-layer="114" from-port="3" to-layer="115" to-port="0"/>
		<edge from-layer="113" from-port="1" to-layer="116" to-port="0"/>
		<edge from-layer="115" from-port="1" to-layer="116" to-port="1"/>
		<edge from-layer="113" from-port="1" to-layer="117" to-port="0"/>
		<edge from-layer="117" from-port="1" to-layer="118" to-port="0"/>
		<edge from-layer="111" from-port="8" to-layer="118" to-port="1"/>
		<edge from-layer="116" from-port="2" to-layer="119" to-port="0"/>
		<edge from-layer="118" from-port="2" to-layer="119" to-port="1"/>
		<edge from-layer="119" from-port="2" to-layer="120" to-port="0"/>
		<edge from-layer="120" from-port="3" to-layer="121" to-port="0"/>
		<edge from-layer="119" from-port="2" to-layer="122" to-port="0"/>
		<edge from-layer="122" from-port="3" to-layer="123" to-port="0"/>
		<edge from-layer="121" from-port="1" to-layer="124" to-port="0"/>
		<edge from-layer="123" from-port="1" to-layer="124" to-port="1"/>
		<edge from-layer="121" from-port="1" to-layer="125" to-port="0"/>
		<edge from-layer="125" from-port="1" to-layer="126" to-port="0"/>
		<edge from-layer="119" from-port="2" to-layer="126" to-port="1"/>
		<edge from-layer="124" from-port="2" to-layer="127" to-port="0"/>
		<edge from-layer="126" from-port="2" to-layer="127" to-port="1"/>
		<edge from-layer="127" from-port="2" to-layer="128" to-port="0"/>
		<edge from-layer="128" from-port="3" to-layer="130" to-port="0"/>
		<edge from-layer="129" from-port="1" to-layer="130" to-port="1"/>
		<edge from-layer="130" from-port="2" to-layer="132" to-port="0"/>
		<edge from-layer="131" from-port="1" to-layer="132" to-port="1"/>
		<edge from-layer="133" from-port="0" to-layer="134" to-port="0"/>
		<edge from-layer="132" from-port="2" to-layer="135" to-port="0"/>
		<edge from-layer="134" from-port="2" to-layer="135" to-port="1"/>
		<edge from-layer="135" from-port="2" to-layer="136" to-port="0"/>
		<edge from-layer="136" from-port="3" to-layer="137" to-port="0"/>
		<edge from-layer="137" from-port="3" to-layer="138" to-port="0"/>
		<edge from-layer="134" from-port="1" to-layer="139" to-port="0"/>
		<edge from-layer="138" from-port="1" to-layer="140" to-port="0"/>
		<edge from-layer="139" from-port="3" to-layer="140" to-port="1"/>
		<edge from-layer="140" from-port="2" to-layer="141" to-port="0"/>
		<edge from-layer="141" from-port="1" to-layer="142" to-port="0"/>
		<edge from-layer="134" from-port="1" to-layer="142" to-port="1"/>
		<edge from-layer="134" from-port="1" to-layer="143" to-port="0"/>
		<edge from-layer="137" from-port="1" to-layer="144" to-port="0"/>
		<edge from-layer="143" from-port="3" to-layer="144" to-port="1"/>
		<edge from-layer="144" from-port="2" to-layer="145" to-port="0"/>
		<edge from-layer="137" from-port="2" to-layer="146" to-port="0"/>
		<edge from-layer="145" from-port="1" to-layer="147" to-port="0"/>
		<edge from-layer="146" from-port="1" to-layer="147" to-port="1"/>
		<edge from-layer="142" from-port="2" to-layer="148" to-port="0"/>
		<edge from-layer="147" from-port="2" to-layer="148" to-port="1"/>
		<edge from-layer="148" from-port="2" to-layer="149" to-port="0"/>
		<edge from-layer="137" from-port="4" to-layer="150" to-port="0"/>
		<edge from-layer="149" from-port="3" to-layer="150" to-port="1"/>
		<edge from-layer="150" from-port="2" to-layer="151" to-port="0"/>
		<edge from-layer="148" from-port="2" to-layer="152" to-port="0"/>
		<edge from-layer="151" from-port="1" to-layer="153" to-port="0"/>
		<edge from-layer="152" from-port="1" to-layer="153" to-port="1"/>
		<edge from-layer="153" from-port="2" to-layer="154" to-port="0"/>
		<edge from-layer="148" from-port="2" to-layer="155" to-port="0"/>
		<edge from-layer="154" from-port="2" to-layer="155" to-port="1"/>
		<edge from-layer="156" from-port="0" to-layer="157" to-port="0"/>
		<edge from-layer="154" from-port="2" to-layer="158" to-port="0"/>
		<edge from-layer="157" from-port="2" to-layer="158" to-port="1"/>
		<edge from-layer="158" from-port="2" to-layer="159" to-port="0"/>
		<edge from-layer="159" from-port="3" to-layer="160" to-port="0"/>
		<edge from-layer="160" from-port="3" to-layer="161" to-port="0"/>
		<edge from-layer="157" from-port="1" to-layer="162" to-port="0"/>
		<edge from-layer="161" from-port="1" to-layer="163" to-port="0"/>
		<edge from-layer="162" from-port="3" to-layer="163" to-port="1"/>
		<edge from-layer="163" from-port="2" to-layer="164" to-port="0"/>
		<edge from-layer="164" from-port="1" to-layer="165" to-port="0"/>
		<edge from-layer="157" from-port="1" to-layer="165" to-port="1"/>
		<edge from-layer="157" from-port="1" to-layer="166" to-port="0"/>
		<edge from-layer="160" from-port="1" to-layer="167" to-port="0"/>
		<edge from-layer="166" from-port="3" to-layer="167" to-port="1"/>
		<edge from-layer="167" from-port="2" to-layer="168" to-port="0"/>
		<edge from-layer="160" from-port="2" to-layer="169" to-port="0"/>
		<edge from-layer="168" from-port="1" to-layer="170" to-port="0"/>
		<edge from-layer="169" from-port="1" to-layer="170" to-port="1"/>
		<edge from-layer="165" from-port="2" to-layer="171" to-port="0"/>
		<edge from-layer="170" from-port="2" to-layer="171" to-port="1"/>
		<edge from-layer="171" from-port="2" to-layer="172" to-port="0"/>
		<edge from-layer="160" from-port="4" to-layer="173" to-port="0"/>
		<edge from-layer="172" from-port="3" to-layer="173" to-port="1"/>
		<edge from-layer="173" from-port="2" to-layer="174" to-port="0"/>
		<edge from-layer="171" from-port="2" to-layer="175" to-port="0"/>
		<edge from-layer="174" from-port="1" to-layer="176" to-port="0"/>
		<edge from-layer="175" from-port="1" to-layer="176" to-port="1"/>
		<edge from-layer="176" from-port="2" to-layer="177" to-port="0"/>
		<edge from-layer="171" from-port="2" to-layer="178" to-port="0"/>
		<edge from-layer="177" from-port="2" to-layer="178" to-port="1"/>
		<edge from-layer="177" from-port="2" to-layer="179" to-port="0"/>
		<edge from-layer="179" from-port="3" to-layer="180" to-port="0"/>
	</edges>
	<meta_data>
		<MO_version value="2019.3.0-408-gac8584cb7"/>
		<cli_parameters>
			<blobs_as_inputs value="False"/>
			<data_type value="float"/>
			<disable_nhwc_to_nchw value="False"/>
			<disable_resnet_optimization value="False"/>
			<enable_concat_optimization value="False"/>
			<extensions value="DIR"/>
			<framework value="tf"/>
			<freeze_placeholder_with_value value="{}"/>
			<generate_experimental_IR_V10 value="False"/>
			<input value="0:char_embedding/Reshape,Variable/read,Variable_1/read"/>
			<input_checkpoint value="DIR"/>
			<input_model value="DIR/graph-2016-09-10.pbtxt"/>
			<input_model_is_text value="True"/>
			<input_shape value="[50],[1,9216],[1,9216]"/>
			<keep_quantize_ops_in_IR value="False"/>
			<keep_shape_ops value="False"/>
			<log_level value="ERROR"/>
			<mean_scale_values value="{}"/>
			<mean_values value="()"/>
			<move_to_preprocess value="False"/>
			<output value="['softmax_out', 'lstm/lstm_0/concat_2', 'lstm/lstm_1/concat_2']"/>
			<output_dir value="DIR"/>
			<placeholder_shapes value="{'0:char_embedding/Reshape': array([50]), 'Variable/read': array([   1, 9216]), 'Variable_1/read': array([   1, 9216])}"/>
			<reverse_input_channels value="False"/>
			<scale_values value="()"/>
			<silent value="False"/>
			<steps value="False"/>
			<version value="False"/>
			<unset unset_cli_parameters="batch, disable_fusing, disable_gfusing, finegrain_fusing, generate_deprecated_IR_V2, input_meta_graph, model_name, saved_model_dir, saved_model_tags, scale, tensorboard_logdir, tensorflow_custom_layer_libraries, tensorflow_custom_operations_config_update, tensorflow_object_detection_api_pipeline_config, tensorflow_operation_patterns, tensorflow_subgraph_patterns, tensorflow_use_custom_operations_config"/>
		</cli_parameters>
	</meta_data>
</net>
